models/MyModel_9.pth (torch, 588703 bytes, 10 tensors)

weight f4 [32, 3, 5, 5]
0	0x3d86fdf0	0.065914035
1	0x3d8a5b37	0.06755679
2	0x3d2ed9dd	0.04268824
3	0x3dc5a593	0.096507214
4	0xbbc059e4	-0.005870091
5	0xbd1d72cc	-0.038439557
6	0xbdfd86cc	-0.12379226
7	0x3d01a9ba	0.031656004
8	0x3e1cc0c0	0.15307903
9	0x3e028813	0.1274722
10	0x3d237f10	0.039916098
11	0x3d9e4c2e	0.07729374
12	0xbd249a88	-0.040186435
13	0x3dc9b1f6	0.098483965
14	0x3e2d53a0	0.16926432
15	0xbcb13614	-0.021632232
16	0xbdc410ee	-0.095735416
17	0xbdb47c19	-0.08812732
18	0x3be72076	0.00705343
19	0x3d515646	0.051107667
20	0x3b443981	0.0029941502
21	0xbda8331d	-0.08212874
22	0xbdce31db	-0.10068103
23	0x3ccb9b0e	0.02485421
24	0x3e1f76e9	0.15572704
25	0xbe370030	-0.17871165
26	0xbd519b7c	-0.051173672
27	0xbd876599	-0.06611175
28	0x3db17d60	0.086664915
29	0xbc620d7b	-0.013797159
30	0xbd038e4c	-0.032118127
31	0xbe12d49d	-0.14338918
32	0xbd9276f6	-0.07151596
33	0x3e01f301	0.12690355
34	0x3c09a0bc	0.0084001385
35	0xbe2fac07	-0.17155467
36	0xbe29d35e	-0.16584536
37	0x3cca4645	0.02469171
38	0x3e1154c2	0.14192489
39	0xbb4c502b	-0.0031175714
40	0xbd82c1a0	-0.06384587
41	0xbd9fabf8	-0.07796472
42	0xbb657065	-0.003500962
43	0x3c6c6804	0.014429096
44	0x3de89763	0.11357
45	0xbdf93388	-0.12168032
46	0x3d60f7fd	0.054924
47	0xbde71580	-0.11283398
48	0x3d83b3f8	0.06430811
49	0x3da9f108	0.08297926
50	0xbddd8195	-0.108157314
51	0xbd0159d1	-0.031579796
52	0x3d8e9c06	0.06963353
53	0x3d9572af	0.07297265
54	0x3db2f097	0.08737295
55	0xbda107fa	-0.078628495
56	0xbd8d72d8	-0.0690667
57	0x3d9f42ec	0.07776436
58	0xbceec9b4	-0.029148914
59	0x3cd251ab	0.025673708
60	0xbd5d0560	-0.053960204
61	0xbde93af8	-0.113882005
62	0x3c08c3f2	0.008347498
63	0xbd41f855	-0.04735597
64	0xbda09fa3	-0.07842948
65	0xbd369232	-0.044573016
66	0xbd9433d2	-0.072364464
67	0x3c996db6	0.018729072
68	0x3d36a58d	0.044591475
69	0xbd8dde11	-0.069271214
70	0xbe149621	-0.14510395
71	0xbc02885e	-0.007967083
72	0xbd90dd14	-0.07073417
73	0xbd9a486a	-0.07533343
74	0x3d1e1195	0.038590986
75	0xbe162408	-0.14662182
76	0xbe0c8c02	-0.13725284
77	0xbcbe1f60	-0.02320832
78	0x3da58597	0.08082121
79	0x3c83d2de	0.01609176
80	0x3d32d3dc	0.043659076
81	0x3da3a6c8	0.079907954
82	0x3da08084	0.078370124
83	0x3dd4760d	0.10374079
84	0xbca9c1aa	-0.020722229
85	0x3d3e6b10	0.04648882
86	0xbe0e55c9	-0.13899912
87	0xbe1d2c05	-0.15348823
88	0xbd343132	-0.04399223
89	0x3cd64b08	0.026158825
90	0x3d095c40	0.033535242
91	0x3dca2510	0.0987035
92	0x3bead16b	0.007166078
93	0xbe13b3bb	-0.1442403
94	0x3bd2e980	0.006436527
95	0xbc09213a	-0.008369738
96	0x3da0609b	0.07830926
97	0x3da4e3f8	0.08051294
98	0xbd8d11e4	-0.06888178
99	0xbc91dbf8	-0.017805085
100	0xbdc52d3c	-0.096277684
101	0x3cf492fc	0.029855244
102	0xbcf84fba	-0.030311454
103	0x3db58a14	0.08864227
104	0x3d442c52	0.04789383
105	0x3e12e121	0.14343692
106	0xbca699a3	-0.020336932
107	0x3e0b9e84	0.13634688
108	0x3e11b021	0.14227344
109	0xbd90a5a9	-0.07062847
110	0x3e144964	0.14481121
111	0x3c836bf0	0.01604268
112	0xbd2d24f1	-0.04227156
113	0xbdad2ee0	-0.08456206
114	0x3e037ee1	0.12841369
115	0x3bedd29b	0.007257772
116	0x3dadb6a8	0.084821045
117	0xbd3d03f1	-0.046146337
118	0xbbb698e4	-0.005572425
119	0xbdac7c6b	-0.08422168
120	0xbdf8c7e2	-0.121474996
121	0x3dda5239	0.10660214
122	0x3e0f8da4	0.14018875
123	0x3d2d4b59	0.042308185
124	0x3d876d8f	0.066126935
125	0xbb835f8c	-0.004009193
126	0xbdf5cea9	-0.12002308
127	0xbdf62589	-0.12018878
128	0x3a395cd2	0.0007071021
129	0xbdec80b8	-0.11547989
130	0x3d6af829	0.05736557
131	0x3dc4acf9	0.096033044
132	0xbd2467a8	-0.040137917
133	0x3d49c8fa	0.04926393
134	0xbdbd4dc4	-0.09243348
135	0xbdbdba32	-0.092640296
136	0xbe04d437	-0.12971579
137	0xbdbfc314	-0.0936338
138	0x3d8991d3	0.06717267
139	0x3dd1f0f1	0.10251034
140	0xbccb9c28	-0.024854735
141	0xbdb3abb3	-0.087729834
142	0x3d413fea	0.047180094
143	0xbd4ea08e	-0.050446086
144	0xbe00fcee	-0.12596485
145	0xbda92965	-0.082598485
146	0x3da8d0c5	0.08242945
147	0x3df00024	0.11718777
148	0xbbe407d3	-0.0069589405
149	0x3d06d740	0.032920122
150	0xbd9b5e60	-0.0758636
151	0xbd8816b6	-0.06644957
152	0xbd37be98	-0.0448595
153	0x3ca0a346	0.019609105
154	0x3d50dba2	0.05099071
155	0x3d696dca	0.05698947
156	0x3d94020f	0.07226955
157	0xbe36ba08	-0.17844403
158	0xbda5ad08	-0.08089644
159	0x3e132824	0.14370781
160	0x3dfc5d9b	0.12322541
161	0xbd900140	-0.070314884
162	0xbde1f166	-0.11032371
163	0xbddcacac	-0.10775122
164	0x3e07427d	0.13208957
165	0xbd49a1e0	-0.04922664
166	0x3d7f9408	0.062397033
167	0xbe19208c	-0.14953822
168	0xbcffb35f	-0.03121346
169	0x3cde6048	0.02714552
170	0x3d3e9d6b	0.046536844
171	0xbcb32217	-0.021866841
172	0xbe220e66	-0.15825805
173	0x3dd7007a	0.10498138
174	0x3c8045bf	0.015658258
175	0x3cd3df35	0.02586327
176	0x3cbbde42	0.02293313
177	0xbe176229	-0.14783539
178	0xbe14577d	-0.14486499
179	0x3d8e954d	0.069620706
180	0x3dc28921	0.094988115
181	0xbddf2b67	-0.1089695
182	0xbe22b7dd	-0.15890451
183	0x3c8ec7b5	0.017429212
184	0x3dae15ce	0.08500253
185	0xbd9ad4ce	-0.075601205
186	0xbe0a5c0a	-0.13511673
187	0xbe65c37c	-0.22437853
188	0x3d902ae4	0.07039431
189	0xbd4979b4	-0.04918833
190	0x3d5ca428	0.05386749
191	0xbe3239b1	-0.1740482
192	0xbdfff50d	-0.124979116
193	0xbd24d511	-0.04024226
194	0x3bbb309b	0.0057125813
195	0xbd89f30c	-0.06735811
196	0xbe08568d	-0.13314267
197	0xbe34f96d	-0.17673273
198	0x3d9bbe9d	0.07604716
199	0x3d389d8b	0.04507212
200	0xbd1f6f06	-0.03892424
201	0x3c871cc7	0.016493214
202	0x3d235d06	0.039883636
203	0xbd8f49df	-0.06996512
204	0x3de81a63	0.11333158
205	0x3dc0dc49	0.09417016
206	0x3de22468	0.110421
207	0xbddb511b	-0.10708829
208	0x3dd81712	0.10551275
209	0x3e1429ed	0.14469118
210	0x3e34b7c4	0.17648226
211	0x3bd330c7	0.0064450237
212	0xbd6c58e7	-0.05770197
213	0x3e22bf5b	0.15893309
214	0x3dfac1a2	0.12243964
215	0x3e3ffd23	0.18748908
216	0x3dd97a64	0.10619047
217	0xbd8fc797	-0.070204906
218	0x3e318272	0.17334917
219	0x3d0ca556	0.034337364
220	0xbd7544fe	-0.05988025
221	0xbd5562a1	-0.052096013
222	0xbb38366a	-0.0028108605
223	0x3e3e51f1	0.18585946
224	0x3e30566c	0.17220467
225	0x3d9f25c4	0.07770875
226	0x3e0c271b	0.13686793
227	0x3e04a9e1	0.12955429
228	0x3e3a0c69	0.18168797
229	0xbc85a7ff	-0.016315458
230	0xbd60de0b	-0.054899257
231	0xbde5154d	-0.111857034
232	0x3d167f16	0.036742292
233	0x3e4cd69d	0.20003743
234	0x3d8353ae	0.06412445
235	0x3c3ba6ed	0.011453372
236	0x3d7c519c	0.061601266
237	0x3d2c4a36	0.04206296
238	0x3d77dc94	0.060513094
239	0x3e2cca21	0.16873981
240	0xbe033628	-0.12813628
241	0xbd6c9855	-0.057762463
242	0x3e2a1f2e	0.16613457
243	0x3e7aeebc	0.24505132
244	0xbbc8765b	-0.0061176247
245	0xbe195e79	-0.14977445
246	0xbdc9b17a	-0.09848304
247	0xbcfd0308	-0.030885234
248	0x3e5df903	0.21677022
249	0x3de6d549	0.1127115
250	0xbe36e424	-0.17860466
251	0xbdf5d7cb	-0.1200405
252	0xbd379b65	-0.04482593
253	0x3c936000	0.017990112
254	0xbde2fb68	-0.11083108
255	0xbe044dc3	-0.12920289

bias f4 [32]
0	0x3dc9b286	0.09848504
1	0xbd6daf3f	-0.058028456
2	0x3d94c93e	0.072649464
3	0xbc86deee	-0.016463723
4	0x3d4fb6a6	0.050711296
5	0xbe15e222	-0.14637044
6	0x3e1076d8	0.14107835
7	0xbe2a079e	-0.16604468
8	0x3e0f57c3	0.13998322
9	0x3d18c8e7	0.03730097
10	0x3d84dea7	0.0648778
11	0x3e792269	0.24329533
12	0x3c838f22	0.016059462
13	0x3de13b73	0.10997667
14	0xbc07cd38	-0.008288674
15	0xbe63c5d3	-0.22243433
16	0xbd74ffc5	-0.059814233
17	0x3d2a70cc	0.041611478
18	0xbea0c449	-0.31399754
19	0x3e054d04	0.1301766
20	0x3e5109cc	0.20413893
21	0x3cd6eda5	0.026236365
22	0xbcc4f178	-0.024040923
23	0xbe28246a	-0.16420141
24	0xbb64f735	-0.0034937386
25	0x3c191bc8	0.0093450025
26	0x3e53472a	0.20632616
27	0xbe9ffc67	-0.31247255
28	0x3e514761	0.20437385
29	0xbe0c5321	-0.13703586
30	0xbebaa005	-0.3645021
31	0xbdb7e3d4	-0.08979002

weight f4 [32, 32, 5, 5]
0	0xbcc2268c	-0.023700021
1	0x3c5310c3	0.012882414
2	0xbcf1520e	-0.029458072
3	0xbc357d9f	-0.011077314
4	0x3c8d68f5	0.017261961
5	0x3c91aa0a	0.017781276
6	0x3c70ce43	0.014697614
7	0x3d4d5cf6	0.050137483
8	0xba02da61	-0.00049916474
9	0x3d4179eb	0.04723541
10	0x3cde73ad	0.027154768
11	0x3d049e99	0.032377813
12	0x3bce8128	0.0063020177
13	0xbc0b0fc5	-0.0084876465
14	0x3b83a0b0	0.004016958
15	0xbceed774	-0.02915547
16	0xbc94e86f	-0.01817724
17	0x3d2c15b1	0.042012874
18	0xbb0f2c5f	-0.0021846516
19	0x3cfd217c	0.030899756
20	0xbce2f740	-0.027705789
21	0xbcf83ab8	-0.030301437
22	0x3ca0eb48	0.01964344
23	0xbcbbb31d	-0.022912556
24	0x3d2a6048	0.041595727
25	0x3c1a1842	0.009405198
26	0x3ca4e882	0.0201304
27	0xbc2302da	-0.00994941
28	0x3d1f906a	0.038956083
29	0xbbc7ed6b	-0.0061013005
30	0xbc199c4a	-0.009375641
31	0x3b0ce8a4	0.002150097
32	0xbb7c704d	-0.0038519085
33	0x3d2fcd57	0.042920437
34	0x3bef4804	0.007302286
35	0x385611db	5.1038205e-05
36	0x3c81fae4	0.015866704
37	0xbc18a034	-0.009315539
38	0x3c8c2c02	0.017110828
39	0x3cb0a194	0.021561421
40	0xbcf232d1	-0.029565247
41	0xbb8e0bcd	-0.004334903
42	0x3d09d00e	0.033645682
43	0xbc4de3bf	-0.012566506
44	0x3c917b80	0.017759085
45	0x3bb6879e	0.005570366
46	0x3c5775e3	0.013150665
47	0x3c9b0b72	0.018926356
48	0xbcab430c	-0.020905994
49	0x3bc97fd1	0.00614927
50	0xbc1ab909	-0.00944353
51	0x3ce564d3	0.028002178
52	0x3c95d9f7	0.01829241
53	0x3cba5bd4	0.022748865
54	0x3d085000	0.03327942
55	0xbca1d28c	-0.019753717
56	0x3cd5ad4e	0.026083615
57	0x3c001361	0.00781712
58	0x3c719dfe	0.014747141
59	0x3d3bc7ac	0.04584472
60	0xbcba50da	-0.022743631
61	0x3d72a69a	0.059240915
62	0x3cf38501	0.029726507
63	0xbbad4bc6	-0.005288574
64	0x3ce37ec5	0.02777041
65	0x3c282227	0.010262049
66	0x3d4f7773	0.050651025
67	0x3b9156c6	0.004435393
68	0xbc69c2b6	-0.014267614
69	0x3c0d6c1e	0.008631734
70	0x3c3eb8ff	0.011640786
71	0xbca4741a	-0.020074893
72	0x3b307a47	0.0026928352
73	0x3c802e89	0.01564719
74	0x3c1761ed	0.009239656
75	0xbc7c9302	-0.015415909
76	0x3c7f97d7	0.015600166
77	0x3d1e2711	0.038611475
78	0x3c8831f2	0.016625378
79	0xbc0a35d3	-0.008435684
80	0x3c96a859	0.018390821
81	0x3d08eb9e	0.033427827
82	0x3da657d2	0.08122219
83	0xbd0d5990	-0.03450924
84	0x3b1ddb1b	0.0024086896
85	0x3c8aa179	0.0169227
86	0x3d37deca	0.044890203
87	0x3d9f5432	0.07779731
88	0x3ad54ae2	0.0016272927
89	0x3ceecb60	0.029149711
90	0x3cd9943f	0.026559947
91	0xbb320490	-0.0027163364
92	0x3c1722f9	0.009224647
93	0xbcc45a2a	-0.023968775
94	0x3b82a7c4	0.0039872844
95	0x3c83a943	0.016071921
96	0x3c89e611	0.016833337
97	0x3d2e185d	0.042503703
98	0xbd11e52a	-0.03561894
99	0xbc24d6b0	-0.010060951
100	0xbca5db9f	-0.020246325
101	0xbcf7c487	-0.030245079
102	0xbbfe409e	-0.007759168
103	0xbd1465b9	-0.036229823
104	0x3cfc9441	0.030832412
105	0xbd0250ab	-0.031815212
106	0x3acb4c48	0.0015510404
107	0x3d4446f2	0.04791922
108	0x3c936a5e	0.017995056
109	0x3d1e0359	0.03857741
110	0xbcc83626	-0.024439882
111	0x3bb03f41	0.005378634
112	0x3cd4c6b5	0.025973657
113	0xbc8c6522	-0.017138068
114	0x3c181f47	0.009284801
115	0x3c4d6916	0.0125372615
116	0x3d78db5a	0.060756065
117	0x3d051ef0	0.032500207
118	0x3c647fa7	0.01394645
119	0x3d300582	0.042974003
120	0x3af60969	0.0018771115
121	0x3c9c3bc4	0.019071467
122	0x3c329919	0.010900759
123	0x3d24bada	0.040217258
124	0xbbde0b1f	-0.006776228
125	0xbc95d916	-0.018291991
126	0xbd3d0e35	-0.046156127
127	0xbcc36ec5	-0.02385653
128	0xbd635f2b	-0.05551068
129	0xbd38ca83	-0.045115005
130	0x3ce4d6b1	0.027934404
131	0xbd21d992	-0.03951413
132	0xbc3d5eee	-0.0115582775
133	0x3cac0041	0.020996215
134	0x3cc631bf	0.024193643
135	0xbcc3ecee	-0.023916688
136	0xbc609f68	-0.01370988
137	0x3c699dce	0.014258815
138	0x3c91c16e	0.01779243
139	0xbd14a0dd	-0.036286224
140	0xba76b525	-0.0009411148
141	0x3c15f5c6	0.009152835
142	0x3c5987bb	0.01327699
143	0xb9c75d42	-0.0003802572
144	0xbcca5bea	-0.024702031
145	0xbcf6580e	-0.030071285
146	0xbc883ace	-0.016629603
147	0x3c001641	0.007817806
148	0xbcc9994e	-0.024609234
149	0xbcbbb5d5	-0.022913853
150	0xbca8eb82	-0.020620111
151	0x3d147b8d	0.03625064
152	0xbc8590a4	-0.016304322
153	0x3d42ff97	0.04760703
154	0xbbc694a6	-0.0060602007
155	0xbb298d4c	-0.0025871573
156	0xbbec7452	-0.007216015
157	0x3d15d9ca	0.036584653
158	0x3d0fb7c3	0.03508736
159	0xbc1a2401	-0.009407998
160	0x3cadf8b8	0.021236762
161	0x3d1bb804	0.038017288
162	0xbcb0c6b4	-0.021579124
163	0x3c2dbd48	0.01060421
164	0x3d1b2f11	0.037886683
165	0x3cf39db7	0.02973829
166	0x3c9003ad	0.017579878
167	0xbd115638	-0.035482615
168	0xbcc252f9	-0.023721205
169	0x3d0a2c42	0.033733614
170	0xbb95f861	-0.004576728
171	0xbd22608d	-0.03964286
172	0x3c9845ae	0.018587913
173	0x3cdd2bb5	0.02699838
174	0xbc91b796	-0.017787736
175	0x3cde0ca3	0.027105635
176	0x3c9bf932	0.019039724
177	0x3d20fd0f	0.039303835
178	0x3cccd547	0.025004042
179	0xbcbb1768	-0.02283831
180	0xbceb8f39	-0.028754817
181	0xbaa7c6f7	-0.0012800385
182	0x3cbe936c	0.023263656
183	0x3cfbaa2b	0.03072079
184	0x3ce071fe	0.027398106
185	0xbc6e20ab	-0.014534156
186	0x3cc542c6	0.024079692
187	0xbbac1107	-0.0052510533
188	0xbb55d198	-0.0032626148
189	0xbcf9343b	-0.030420413
190	0x3c90e54d	0.017687464
191	0xbcd92def	-0.02651116
192	0xbc50391e	-0.01270893
193	0x3bda20ed	0.006656757
194	0xbd0fbfa6	-0.03509488
195	0x3d0d45b4	0.034490302
196	0xbb7281bd	-0.00370036
197	0x3c8ff0c3	0.017570859
198	0xbbed82f2	-0.007248276
199	0x3cb38368	0.021913245
200	0xbcc186e3	-0.02362389
201	0x3bcd46ea	0.006264557
202	0x3c644255	0.01393183
203	0xbb245b49	-0.0025078824
204	0xbd0b8ad2	-0.034067936
205	0xbc90027e	-0.017579313
206	0x3d31845f	0.04333913
207	0xbcc9ad68	-0.02461882
208	0x3c8794a3	0.016550368
209	0x3b747521	0.003730126
210	0xbc864c29	-0.016393738
211	0x3c4f9db0	0.012671873
212	0xbcf14c25	-0.029455254
213	0x3c1d1495	0.009587427
214	0x3c7b7bfa	0.015349383
215	0x3b8fe1fd	0.0043909536
216	0xbcf063d1	-0.029344471
217	0xbc8d3327	-0.017236305
218	0xbc15e0f2	-0.009147869
219	0xbd25425f	-0.0403465
220	0x3cf234d0	0.029566199
221	0xba81ef4e	-0.0009913237
222	0xbc89d449	-0.016824858
223	0xbc8298fa	-0.015942086
224	0xbd329119	-0.043595407
225	0x3cd1a8c9	0.025593178
226	0x3d154b17	0.036448564
227	0x3d72277d	0.05911969
228	0x3ccb6c09	0.024831789
229	0xbc2bd992	-0.0104888845
230	0x3c1fae2b	0.009746115
231	0x3c855fdd	0.016281063
232	0x3d4ef578	0.050527066
233	0x3ab7b605	0.0014016038
234	0x3bbecc4a	0.005822693
235	0xbc4cc314	-0.012497682
236	0x3b19225b	0.0023366425
237	0xbcc2f718	-0.023799464
238	0x3d1f8d6d	0.038953234
239	0xbc7adcc6	-0.015311426
240	0x3ce4cba8	0.027929142
241	0xbc440be1	-0.011965723
242	0x3bbacb52	0.005700507
243	0xbbfa7fed	-0.0076446445
244	0x3caf3668	0.021388248
245	0x3ca97a0e	0.020688083
246	0xbce9fe8c	-0.02856376
247	0xbd600b7d	-0.054698456
248	0x3c8e73be	0.017389175
249	0xbc268614	-0.010163803
250	0xbb02a99a	-0.0019937516
251	0xbd3c68bf	-0.04599833
252	0xbd072fe4	-0.033004656
253	0xbce98ffe	-0.028511044
254	0xbcb03949	-0.02151169
255	0x3bd0005f	0.0063477005

bias f4 [32]
0	0xbb65767b	-0.0035013247
1	0xbd031e24	-0.032011166
2	0xbe069c30	-0.13145518
3	0xbda7d99d	-0.08195803
4	0x3c11bfb4	0.008895803
5	0xbd68ee77	-0.056868043
6	0xbd99e480	-0.07514286
7	0xbc96604b	-0.018356463
8	0xbdf2e0ae	-0.118592605
9	0x3d511671	0.051046792
10	0xbd726ec3	-0.05918766
11	0xbbc2ee1b	-0.0059487945
12	0xbb44e0b6	-0.0030041165
13	0xbd0ef3d8	-0.034900516
14	0x3cdfc3f5	0.02731512
15	0xbdaf2f71	-0.085539706
16	0xbbae4ea7	-0.0053194347
17	0xbd2875df	-0.041128036
18	0xb9dab079	-0.00041711683
19	0xbcf32396	-0.029680055
20	0xbca42b80	-0.020040274
21	0xbd0d1030	-0.034439266
22	0xbe195b55	-0.14976247
23	0x3cab760f	0.020930318
24	0xbd41201d	-0.047149766
25	0xbdca6cbe	-0.09884022
26	0xbd28a53a	-0.041173197
27	0xbda0fdfd	-0.078609444
28	0xbcc4823c	-0.023987882
29	0x3ceb3c46	0.028715264
30	0xbc8fccd1	-0.017553719
31	0x3d5b2dcd	0.053510476

weight f4 [64, 32, 5, 5]
0	0xbce01715	-0.027354756
1	0x3c95ab39	0.018270122
2	0x3c09f101	0.008419276
3	0x3ca72e39	0.020407783
4	0xbd0d2188	-0.034455806
5	0xbcd0a804	-0.025470741
6	0xbc1fe9f1	-0.009760366
7	0xb9da7d84	-0.00041673717
8	0x3ccd7a7e	0.025082823
9	0xbc957ddd	-0.018248493
10	0xbc8150ea	-0.015785653
11	0xbccf7680	-0.02532506
12	0xbd162d33	-0.0366642
13	0x3b2723e0	0.002550356
14	0xbadf48f9	-0.0017035297
15	0xbcdfcbce	-0.027318861
16	0x3a86138f	0.0010229218
17	0x3cb37980	0.021908522
18	0x3c640b79	0.013918751
19	0x3d072db0	0.033002555
20	0x3ce602d2	0.028077517
21	0x3d0994ea	0.03358928
22	0x3d4288ff	0.04749393
23	0x3a419c5d	0.00073856657
24	0xbb92ce43	-0.0044801547
25	0xbc23b44a	-0.009991715
26	0xbb9340b5	-0.0044937977
27	0x3a0becd3	0.0005337719
28	0x3bcd5066	0.0062656878
29	0x3ccc9083	0.024971252
30	0x3b5cda82	0.0033699577
31	0xbc2c785e	-0.010526745
32	0x3c8c7b9b	0.017148783
33	0x3c775be4	0.015097592
34	0x3bdd8c2a	0.0067610936
35	0x3c71ca96	0.014757773
36	0x3cf29f0c	0.029616855
37	0xbc69da0f	-0.014273181
38	0x3b12a168	0.0022374038
39	0xbc7c078c	-0.015382659
40	0x3ce09a44	0.02741731
41	0x3cbe9b01	0.023267271
42	0xba6733ed	-0.0008819688
43	0xbc552756	-0.013009867
44	0xbd17e71b	-0.037085634
45	0x3d08c7c2	0.03339363
46	0x3d603941	0.0547421
47	0x3cd56b93	0.026052272
48	0x3a9d1656	0.0011984806
49	0xbca91f38	-0.02064477
50	0xbc8926b7	-0.016742093
51	0x3cddbf40	0.027068734
52	0x3d09b7d3	0.033622574
53	0x3bdf6193	0.0068170517
54	0xbd06ea38	-0.032938212
55	0xbc7c2992	-0.0153907705
56	0x3ce8207d	0.028335804
57	0x3c98ea5d	0.01866644
58	0xbd1bf945	-0.03807952
59	0x3c54d50c	0.012990247
60	0xbc827201	-0.015923502
61	0x3d10efc9	0.035384927
62	0xbc88d1cf	-0.016701607
63	0x3cdbe523	0.02684266
64	0x3cc87df2	0.024474118
65	0xbcfdbb66	-0.030973148
66	0xbb81c0cd	-0.003959751
67	0xbc994774	-0.01871083
68	0xbc127572	-0.008939134
69	0x37bbc934	2.238583e-05
70	0xbafb9e6e	-0.0019196996
71	0x3d6f2c12	0.058391638
72	0x3c864abb	0.016393056
73	0xbcb6154b	-0.02222695
74	0x3ce8b929	0.028408604
75	0xbc84017b	-0.016113987
76	0x3bb74970	0.005593471
77	0x3cdd68ea	0.027027566
78	0xbd0904a1	-0.03345168
79	0xbc55fc54	-0.013060648
80	0xbd07dd2c	-0.03316991
81	0xb9797394	-0.00023789547
82	0x3d04b0ac	0.03239505
83	0xbb2e68c2	-0.0026612733
84	0x3b8d29ef	0.0043079774
85	0xbc9953e3	-0.018716758
86	0x3c331a95	0.010931631
87	0x3c62e9e7	0.013849712
88	0x3b6dea52	0.0036302996
89	0xbb71d3b3	-0.0036899864
90	0xbc919806	-0.017772686
91	0xba8c7c6b	-0.0010718232
92	0x3b2d7567	0.0026467682
93	0x3c9351f2	0.01798341
94	0x3cbc33b6	0.022973876
95	0xbc1c62c5	-0.009545033
96	0xbd068cb7	-0.03284904
97	0xbc253188	-0.01008261
98	0x3c9ac650	0.01889339
99	0xbc3c38f7	-0.011488191
100	0x3be18ec9	0.0068834764
101	0x3cd3a0e7	0.02583356
102	0xbcbb4f80	-0.022865057
103	0x3d0d6a6d	0.034525324
104	0xbc76032b	-0.015015404
105	0x3ca0f4f4	0.019648053
106	0xbc3f089b	-0.011659767
107	0xbd14a8c6	-0.036293767
108	0x3d2ea3ba	0.04263661
109	0x3ce087d5	0.02740852
110	0x3d2b08fd	0.04175662
111	0x3c59c25d	0.013290969
112	0xbb47bee4	-0.003047877
113	0xbbac06c7	-0.0052498314
114	0x3bf87e6e	0.007583431
115	0x3d475b27	0.048670914
116	0x3d45633b	0.048190337
117	0x3d5e1fc3	0.05422951
118	0x3ca39f37	0.01997338
119	0x3b604169	0.0034218675
120	0xbbf97c16	-0.007613669
121	0x3d39552a	0.045247234
122	0xbba329dc	-0.0049793553
123	0xbc8a1a77	-0.016858323
124	0xbd4a540d	-0.049396563
125	0xbab6899f	-0.0013926512
126	0x3c13079c	0.008973982
127	0xbc84a803	-0.016193395
128	0xbcb4e5ee	-0.022082295
129	0x3bbf216c	0.0058328416
130	0xbd1704cc	-0.03686981
131	0xbcda0c6f	-0.026617257
132	0xbc91abf7	-0.017782195
133	0xbd038f91	-0.032119337
134	0x3c8abada	0.0169348
135	0x3c93af70	0.018027991
136	0x3c3375e6	0.010953402
137	0xbcd564fe	-0.026049133
138	0x3cea6fc6	0.02861775
139	0x3d23fba2	0.040034898
140	0xbc61a321	-0.013771803
141	0xbd390eb3	-0.045180034
142	0x3cac7106	0.021049988
143	0x3d2f4956	0.042794548
144	0x3c8948a9	0.01675828
145	0xbc80628f	-0.015671996
146	0x3cba898b	0.022770664
147	0x3c425832	0.011861848
148	0x3d15b1e7	0.036546614
149	0x3c10ca6b	0.008837323
150	0xbcb38ba9	-0.021917181
151	0xbca1496b	-0.019688329
152	0x3d00181a	0.031272985
153	0xbd13c844	-0.03607966
154	0xbd135ddb	-0.03597818
155	0xbcca88b2	-0.024723385
156	0xbd0a717e	-0.03379964
157	0x3cf13762	0.029445354
158	0xbc05a945	-0.008158033
159	0xbd3227bb	-0.04349492
160	0x3b59f149	0.003325539
161	0x3caa5eed	0.020797217
162	0x3c3c5282	0.011494281
163	0xbcf05d68	-0.029341415
164	0x3bf37bec	0.007430544
165	0xbc0b8c31	-0.008517311
166	0x3ca9ee07	0.020743383
167	0xbd42ab9c	-0.04752694
168	0xbc3bea18	-0.0114693865
169	0xbb394ba6	-0.002827385
170	0xba2b3878	-0.0006531547
171	0x3b7642ea	0.0037576505
172	0x3b63e089	0.0034771285
173	0x3c631d72	0.013862001
174	0x3c8b7b9a	0.017026711
175	0x3bda790e	0.006667263
176	0x3ca717c7	0.02039708
177	0x3ca51d3d	0.020155543
178	0xbce9c7a5	-0.02853758
179	0x3c4ea89e	0.012613444
180	0x397b05eb	0.0002393943
181	0xbc815631	-0.01578817
182	0xbc92e541	-0.017931582
183	0x3ca18ac5	0.01971949
184	0x3ca646bc	0.0202974
185	0x3ca1c6af	0.01974806
186	0xbc56bdf6	-0.013106814
187	0x3c9b138b	0.018930217
188	0x3d3784f6	0.044804536
189	0xbb8bbac3	-0.004264207
190	0xbbd75b69	-0.0065721762
191	0x3c9a47b7	0.018833024
192	0x3d48edbf	0.049054857
193	0x3b5361cf	0.0032254343
194	0xbcae6d4c	-0.021292351
195	0x3ce76e81	0.028250935
196	0x3c1861dc	0.009300675
197	0xbc232dcb	-0.009959648
198	0x3cad3601	0.021143915
199	0xbca047f7	-0.019565566
200	0xbcefdc67	-0.0292799
201	0xbc97f5bd	-0.018549794
202	0xbb350ba7	-0.0027625354
203	0x3ca042e6	0.01956315
204	0xbccee9c2	-0.025257949
205	0x3cbbd703	0.022929674
206	0xbc3864b0	-0.0112544745
207	0xbd245b28	-0.040125996
208	0x3c1df6bf	0.009641348
209	0xbc8998d8	-0.016796514
210	0x3ba83d65	0.005134272
211	0xbc97f9cb	-0.018551728
212	0xbcb433ef	-0.02199742
213	0x3d2911cd	0.04127674
214	0xbc54c9d6	-0.012987575
215	0x3d06778b	0.03282885
216	0x3b9ed8ed	0.004847637
217	0x3d3b0eae	0.045668297
218	0xbb55497a	-0.0032545016
219	0xbd313dea	-0.043271936
220	0xbb5ca6ae	-0.0033668685
221	0x3ccf1213	0.025277173
222	0x3d129aad	0.03579204
223	0x3cae6e06	0.021292698
224	0xbc737c29	-0.014861145
225	0xbd16d5b9	-0.036824916
226	0x3d2350f4	0.039872125
227	0xbc4ad1fa	-0.012379164
228	0x3cc6f3a2	0.024286095
229	0xbd094a13	-0.03351791
230	0xbd130d64	-0.035901442
231	0xbc72c56c	-0.014817577
232	0xbd14092b	-0.036141556
233	0x3c7cc69f	0.015428214
234	0xbd21d7c6	-0.03951242
235	0xbb1863bc	-0.0023252806
236	0xbcb0866e	-0.021548476
237	0xbc835ff3	-0.016036963
238	0xbc961711	-0.018321546
239	0xbc16e228	-0.009209193
240	0xbcc970d2	-0.02458993
241	0x3c869475	0.016428212
242	0x3c9d12d9	0.019174026
243	0xbc00f48e	-0.007870806
244	0x3d104663	0.035223376
245	0xbcc527a5	-0.024066756
246	0x3c71c522	0.014756473
247	0x3cce0edf	0.025153575
248	0xbceb64ce	-0.02873459
249	0x3b00a1de	0.001962773
250	0x3b762f93	0.0037564978
251	0xbcca5155	-0.024696985
252	0xbbc888bc	-0.0061198156
253	0xbcb3ede3	-0.02196402
254	0xbc5015eb	-0.012700538
255	0x3c97f21c	0.018548064

bias f4 [64]
0	0xbd013dc3	-0.03155304
1	0x3c1d2b59	0.009592854
2	0xbd919808	-0.07109076
3	0xbd0ea826	-0.034828328
4	0xbd3b0659	-0.04566035
5	0xbca0d46d	-0.019632543
6	0xbd39c00b	-0.045349162
7	0xbd525bd8	-0.05135712
8	0xbd34c68f	-0.044134673
9	0xbd7093b8	-0.058734626
10	0xbd78099f	-0.06055605
11	0xbb2d48ac	-0.002644102
12	0xbd40e679	-0.047094796
13	0xbdbcdfe5	-0.09222392
14	0x3c47806e	0.012176616
15	0xbd34cfe0	-0.044143558
16	0xbc4d6b88	-0.0125378445
17	0xbcd35e65	-0.025801847
18	0xbc39a99d	-0.011331943
19	0xbcc512f7	-0.024056895
20	0xbc8bc351	-0.017060908
21	0xbd417f6f	-0.04724067
22	0xbce58029	-0.028015213
23	0xbd5c728e	-0.053820185
24	0x3adebdcc	0.001699382
25	0xbd689e13	-0.056791376
26	0xbd062325	-0.03274836
27	0x3cca26a2	0.024676625
28	0xbd266fb0	-0.040633857
29	0xbc0126ea	-0.007882813
30	0x3be01e57	0.0068395543
31	0xbd34bf3e	-0.044127695
32	0x3bd99cad	0.0066409917
33	0xbd19d97a	-0.037560917
34	0x3d04fdd1	0.03246862
35	0xbd46b26a	-0.048509993
36	0x3d09c2b8	0.033632964
37	0xbd30cfa0	-0.043166757
38	0xbd4ba745	-0.049720068
39	0xbd19bffa	-0.0375366
40	0x3b76383a	0.0037570135
41	0xbce4d586	-0.027933847
42	0xbbdda04c	-0.0067634936
43	0xbd69d69b	-0.05708943
44	0xbb3025b6	-0.0026877946
45	0xbc41aaf1	-0.011820541
46	0xbd6b0b18	-0.057383627
47	0xbd31cbda	-0.0434073
48	0xbcadd396	-0.021219056
49	0xbc933707	-0.017970575
50	0xbd429d26	-0.04751315
51	0x3aa8e73b	0.0012886295
52	0xbd9b8001	-0.07592774
53	0xbc47c5bc	-0.01219314
54	0xbd6bf78f	-0.057609137
55	0xbc4506dc	-0.012025561
56	0xbd6c25cf	-0.057653245
57	0x3bae8052	0.0053253556
58	0x3b14fb68	0.0022732858
59	0xbd09fdf2	-0.033689447
60	0xbc9500b2	-0.018188808
61	0xbde08e89	-0.109646864
62	0x3c34b921	0.011030466
63	0xbd44cb2a	-0.048045315

weight f4 [64, 1024]
0	0x3ab5e53a	0.0013877519
1	0x3a4d4d4f	0.0007831649
2	0xbbf8cdb1	-0.0075928797
3	0x3c5b0acb	0.013369272
4	0xbceb232c	-0.028703295
5	0x3b995bd5	0.0046801367
6	0xbc99d234	-0.01877699
7	0xbc7f7594	-0.015591998
8	0x3cbab982	0.022793535
9	0xba217bf0	-0.0006160131
10	0x3c8f69ec	0.017506562
11	0x3afddcce	0.0019368173
12	0xbcd5a298	-0.026078507
13	0x3c81c446	0.01584066
14	0xbcaa4254	-0.02078358
15	0xbca914a0	-0.020639718
16	0x3c30c41d	0.010788945
17	0x3b8b4e6b	0.0042512915
18	0xbc2add49	-0.010428735
19	0xbbfa3945	-0.0076362216
20	0xbc5cde33	-0.013480711
21	0x3cb2af14	0.021812
22	0xbcc7d9a5	-0.024395773
23	0xba2f5282	-0.0006688015
24	0x3b152517	0.0022757703
25	0xbc98d0f3	-0.018654322
26	0x3bc0fde4	0.005889641
27	0xbc4740a8	-0.012161411
28	0xbb1706fd	-0.0023044937
29	0x3c5d4450	0.0135050565
30	0x3be46751	0.006970324
31	0xbd3c100a	-0.045913734
32	0x3b7906cb	0.0037998434
33	0xbc043050	-0.008068159
34	0xbc95997e	-0.018261667
35	0xbcbde7c9	-0.023181813
36	0xb9ed794a	-0.0004529453
37	0x3ce6205c	0.028091602
38	0x3c220eb3	0.0098912
39	0x3d06f93c	0.032952532
40	0xbd001df5	-0.03127857
41	0x3cbae58c	0.022814535
42	0xbc88d377	-0.016702397
43	0x3b51a591	0.0031989554
44	0x3c8a6a4f	0.016896395
45	0x3c1f9896	0.009740969
46	0x3c34fe2a	0.011046926
47	0x3bea3e24	0.007148521
48	0x3baa2300	0.0051921606
49	0xbbbdf237	-0.0057966965
50	0xbce35aaa	-0.027753193
51	0xbca33caa	-0.019926388
52	0x3c9a53f6	0.018838864
53	0xbae9abdf	-0.0017827711
54	0xbd0818b3	-0.03322668
55	0x3b916714	0.0044373367
56	0xbc53f599	-0.012936973
57	0x3bee4315	0.0072711804
58	0xbc7bdc45	-0.015372341
59	0x3cbbd7a7	0.02292998
60	0x3c456012	0.012046831
61	0x3cfe348e	0.03103092
62	0x3cc122c0	0.02357614
63	0xbc89b318	-0.016809031
64	0x3b9d41ca	0.0047991024
65	0x3d32a039	0.04360983
66	0xbc70c342	-0.014694991
67	0x3cb30d09	0.021856802
68	0xbbcd0959	-0.006257218
69	0xb9d8bba4	-0.00041338534
70	0xbc07b783	-0.008283499
71	0xbcaf3346	-0.021386754
72	0xbb4981b6	-0.003074748
73	0x3c3c8b16	0.01150777
74	0xbc20cdfd	-0.009814736
75	0xbcb20256	-0.02172963
76	0x3c983087	0.018577827
77	0x3c0d3ab8	0.008619957
78	0x3cd5d599	0.026102828
79	0x3cbb1b3c	0.022840135
80	0xbc1291e7	-0.008945919
81	0x3d17d850	0.037071526
82	0xbb291e80	-0.0025805533
83	0xbc3d2190	-0.011543646
84	0x3cb17d02	0.021666054
85	0x3ccd9fe6	0.02510066
86	0xbcf154e8	-0.029459432
87	0xbc4c2df6	-0.01246213
88	0x3c755916	0.014974853
89	0x3be1f1de	0.006895288
90	0xbb26c74a	-0.0025448375
91	0xbb1b5f8a	-0.0023708069
92	0xbc1a89f6	-0.0094323065
93	0xbc1e1ebf	-0.009650885
94	0xbcd673a7	-0.026178194
95	0x3cd12de1	0.025534572
96	0x3d092971	0.033486787
97	0x3bce6789	0.0062989634
98	0xbbffc3dc	-0.0078053307
99	0x3d1f1ea8	0.038847595
100	0xbc8d1907	-0.017223848
101	0xbc60b624	-0.013715301
102	0x3c7f1543	0.015569034
103	0xbc945886	-0.018108618
104	0x3cb46f96	0.022025865
105	0xbc8a2c1f	-0.016866742
106	0x3d03d02d	0.032180954
107	0xbc7e7c53	-0.015532571
108	0x3b9289f5	0.004472012
109	0xbca8ce1e	-0.020606097
110	0xbcd7740f	-0.026300458
111	0xbce0376e	-0.027370181
112	0x3b98f3e4	0.004667746
113	0xbb10a2ea	-0.002206976
114	0xbc667e14	-0.014068145
115	0x3d0144f2	0.031559892
116	0xbbe3cb10	-0.006951697
117	0xbc46a7fd	-0.012125012
118	0x3c494f4c	0.012286972
119	0x3c12f0d3	0.00896855
120	0xbb428296	-0.0029679886
121	0xbccc3e4b	-0.024932047
122	0x3b7e4503	0.0038798458
123	0x376b0ec8	1.4010533e-05
124	0xbceff637	-0.02929221
125	0xbc93d451	-0.018045576
126	0xbb1d58a6	-0.0024009137
127	0x3cf02c8f	0.029318122
128	0xbc466d1e	-0.0121109765
129	0xbc82f563	-0.01598615
130	0x3bfd9691	0.007738896
131	0xbcf3336c	-0.029687606
132	0x3bc125a6	0.0058943806
133	0x3a15bf9f	0.00057124527
134	0x3c9c4c72	0.01907942
135	0xbca3d4b0	-0.019998878
136	0x3ce6fede	0.028197702
137	0xbb79b9ae	-0.0038105058
138	0x3c9310e5	0.017952392
139	0xbd098929	-0.03357807
140	0x3c5fb362	0.013653608
141	0x3c3019ec	0.010748368
142	0xbbb359d0	-0.005473353
143	0xbcde86a5	-0.027163813
144	0x3c945089	0.018104808
145	0xbc19c1e8	-0.00938461
146	0xbc3a7e94	-0.011382718
147	0xbc13522b	-0.008991758
148	0xbd184492	-0.03717477
149	0x3c196088	0.009361394
150	0x3be9a275	0.007129962
151	0xbd128c67	-0.03577843
152	0x3be7067a	0.0070503326
153	0xbca1a998	-0.019734189
154	0xbcea3b36	-0.028592687
155	0x3cba146f	0.022714822
156	0xbce276cf	-0.027644543
157	0xbc738f77	-0.014865748
158	0xbcda5317	-0.026650948
159	0x3c84186b	0.016124925
160	0xbc3ec950	-0.011644676
161	0xbaa2aca3	-0.0012411069
162	0x3d1474ee	0.036244325
163	0x3d15cc9a	0.036572076
164	0x3c002dd6	0.007823428
165	0xbc87288c	-0.016498826
166	0xbc790431	-0.015198753
167	0xbc46cc69	-0.012133696
168	0x3caf2c15	0.021383325
169	0xba94b24f	-0.0011344644
170	0xbc4a0269	-0.012329676
171	0xbb59f683	-0.0033258505
172	0x3befde45	0.0073201978
173	0xbc5f2f1a	-0.01362207
174	0xbce8e2f3	-0.02842853
175	0xbce2ca9c	-0.027684502
176	0x3ca96f5f	0.020682989
177	0xbcace445	-0.021104941
178	0xba4e4454	-0.0007868458
179	0xbaf388bb	-0.0018580178
180	0x3abcb184	0.0014396165
181	0x3cf3bc18	0.029752776
182	0x3c6d83f5	0.014496793
183	0xbcd08a21	-0.02545649
184	0xb987ae53	-0.00025879088
185	0xb95f2d3c	-0.00021283788
186	0xba5641c2	-0.0008173251
187	0x3bedfb32	0.007262611
188	0xbca7bc5e	-0.020475563
189	0x3c69eaef	0.014277204
190	0x3bdbd650	0.0067088977
191	0xbc7a4865	-0.015276049
192	0x3c9bff7f	0.019042728
193	0xbbe26c39	-0.006909874
194	0x3bdfc8ea	0.0068293707
195	0x3c9bcdbe	0.019019004
196	0xbc75e8dc	-0.015009131
197	0x3c77a17e	0.015114186
198	0x3c73280f	0.014841094
199	0xba580896	-0.00082410255
200	0xbcddaa13	-0.027058637
201	0xbc521290	-0.012821808
202	0x3bebcdbd	0.007196157
203	0xbc85b7e1	-0.016323032
204	0x3c1315fb	0.0089774085
205	0x3cb08a78	0.021550402
206	0xbc1b062e	-0.009461923
207	0x3c1abc8e	0.009444369
208	0xbc893379	-0.016748177
209	0x3d128cae	0.035778694
210	0x39717f89	0.00023031062
211	0x3c9903c6	0.018678557
212	0x3d0bf563	0.034169566
213	0xbbb12415	-0.0054059126
214	0x3c8c43d9	0.017122196
215	0x3ceed3da	0.029153753
216	0xbc3ae7a9	-0.011407771
217	0x3b8f0ad5	0.004365305
218	0x3c527e0a	0.012847433
219	0x3d044ae1	0.032297973
220	0xbc1472f1	-0.009060607
221	0x3d0e26f8	0.034705132
222	0x3d19172c	0.037375614
223	0x3b349d2d	0.0027559504
224	0xbce935ae	-0.02846798
225	0xbc8e9fca	-0.017410178
226	0x3c8a7729	0.016902523
227	0xbb825be0	-0.0039782375
228	0x3c3b26be	0.011422811
229	0xbbd6bfd9	-0.0065536317
230	0x3c1ac8d3	0.009447294
231	0xbb2effcc	-0.002670276
232	0x3caa75d8	0.020808145
233	0xbc9208a2	-0.017826382
234	0xbc37d5a6	-0.011220371
235	0x3bb397f4	0.0054807607
236	0x3c6bbe2d	0.014388603
237	0xbc9ae46e	-0.018907752
238	0xbccbc002	-0.02487183
239	0xbcc6e735	-0.02428017
240	0x3b7455fb	0.0037282694
241	0xbc0b1bb5	-0.008490493
242	0x3c6e7a83	0.014555576
243	0x3cdcc547	0.026949538
244	0xbd0612f0	-0.032732904
245	0x3c753531	0.014966295
246	0x3cba6ddf	0.022757469
247	0xb9af30e7	-0.00033415036
248	0x3a11c733	0.0005560994
249	0x3bd66596	0.0065428717
250	0xbc366faa	-0.011135021
251	0xbc1e845a	-0.00967511
252	0xbc05586f	-0.00813876
253	0x3cc94552	0.024569187
254	0x3d0da408	0.03458026
255	0xbc116023	-0.008873018

bias f4 [64]
0	0xbc9b79f7	-0.018979056
1	0xbcd15e60	-0.025557697
2	0xbccbaf0c	-0.024863742
3	0xbd85c450	-0.06531584
4	0x3c5b0513	0.013367909
5	0x3c6f1d3e	0.014594374
6	0xbc4bb702	-0.012433769
7	0xbc5b8890	-0.013399258
8	0xbcaa68e5	-0.02080197
9	0xbc15b4e9	-0.009137371
10	0x3d30c323	0.043154847
11	0xbd6b2bd9	-0.057414863
12	0x3c3b784a	0.011442253
13	0x3d22e287	0.039766815
14	0xbc45a6c5	-0.012063687
15	0x3c77b3aa	0.015118519
16	0x3ce61fdf	0.02809137
17	0x3cb67e71	0.022277089
18	0xbce87658	-0.028376743
19	0xbd1960ef	-0.03744596
20	0x3c6b7f64	0.014373634
21	0xbc4f4cc8	-0.012652583
22	0xbcdde92e	-0.027088728
23	0x3ce23a55	0.027615706
24	0x3d1d69d6	0.03843101
25	0xbc2f1db8	-0.010688238
26	0xbd471b9c	-0.048610315
27	0xbc268ad5	-0.010164936
28	0xbbaa3580	-0.005194366
29	0x389bd1a4	7.4300246e-05
30	0x3cf8bba2	0.030362908
31	0xbb4c4c4e	-0.003117341
32	0xb96dad8f	-0.00022666737
33	0xbc201c84	-0.009772424
34	0xbd03dbd4	-0.032192066
35	0x3d0bc855	0.0341266
36	0xbcfcb9ad	-0.030850256
37	0x3b75aa27	0.0037485452
38	0x3c7dcc67	0.015490628
39	0x3ce8907a	0.028389204
40	0x3d103788	0.03520921
41	0xbc958edd	-0.0182566
42	0x3d4654ca	0.048420705
43	0x3c3dfe5b	0.011596288
44	0xbd387edc	-0.045042858
45	0xbcb731b8	-0.022362575
46	0xbcfd6704	-0.03093291
47	0x3b8ce6d5	0.0042999783
48	0xbb9f0e1e	-0.004853978
49	0xbd19ba2e	-0.03753107
50	0x3d3f3ec4	0.046690717
51	0xbd2198c3	-0.039452326
52	0xbced157f	-0.028940914
53	0x3d59784b	0.053093236
54	0x3cfd700c	0.030937217
55	0xbc593590	-0.013257399
56	0xbd29d439	-0.041462157
57	0x3cf4ee86	0.029898893
58	0xba3c6951	-0.0007187324
59	0xbc46ccf8	-0.012133829
60	0x3d0cd891	0.03438622
61	0x3affd88b	0.0019519491
62	0xbd958cfd	-0.07302282
63	0x3caf98e7	0.021435214

weight f4 [10, 64]
0	0xbcd25d26	-0.025679182
1	0xbcdb0001	-0.0267334
2	0x3de5d772	0.112227336
3	0x3def45b8	0.1168322
4	0xbd86c720	-0.06580949
5	0xbd494d19	-0.04914579
6	0x3e17f79b	0.14840548
7	0x3c1c3ce6	0.009536004
8	0xbe2cf35e	-0.16889712
9	0xbd77d3c3	-0.060504686
10	0x3d8c104c	0.06839046
11	0x3e64e326	0.22352275
12	0x3b2105ee	0.0024570185
13	0xbe353601	-0.17696382
14	0xbd59a94d	-0.053139973
15	0x3e3cb6da	0.18429127
16	0xbdef7fff	-0.11694335
17	0xbc128423	-0.008942637
18	0xbe010ced	-0.12602587
19	0x3b66e8e8	0.0035234038
20	0xbe0aea5d	-0.13565965
21	0x3e2ac6a2	0.16677335
22	0x3de4fcfd	0.11181066
23	0xbdf396eb	-0.1189402
24	0xbdb885a7	-0.09009867
25	0x3cbd33e7	0.023096038
26	0x3e2ec275	0.17066367
27	0x3c926243	0.01786912
28	0x3e31420a	0.17310348
29	0xbdea7e5a	-0.11449881
30	0xbd941f9a	-0.0723259
31	0xbdabf1e6	-0.08395748
32	0x3dab2722	0.08357073
33	0x3e0dd048	0.13848984
34	0x3d2af51b	0.041737657
35	0xbe01f785	-0.12692077
36	0xbe23c72c	-0.15993947
37	0x3d100f34	0.03517075
38	0x3e44e30f	0.19227241
39	0xbd1443a8	-0.036197335
40	0x3e1b358e	0.15157148
41	0x3e3e96e8	0.18612254
42	0xbe022f03	-0.12713246
43	0xbe2d95d7	-0.1695169
44	0x3e126549	0.1429645
45	0xbd36ebbe	-0.044658415
46	0x3b6e7b05	0.0036389243
47	0xbe08d9a1	-0.13364269
48	0x3d0707df	0.03296649
49	0x3e458b0c	0.19291323
50	0xbdc79a65	-0.09746245
51	0x3e3b1015	0.18267854
52	0xbe65ead3	-0.2245286
53	0xbe4bf99c	-0.19919437
54	0xbdadd02b	-0.084869705
55	0x3e37cd80	0.17949486
56	0x3c09cde2	0.008410903
57	0xbdcd2f2a	-0.100187615
58	0xbd36a337	-0.044589248
59	0x3e350ee8	0.17681468
60	0xbe0bc7db	-0.13650458
61	0xbdecb799	-0.11558456
62	0x3e317877	0.1733111
63	0x3ca28025	0.019836495
64	0xbd844a78	-0.06459516
65	0x3d859164	0.06521872
66	0x3e266a98	0.162516
67	0x3e56c1db	0.20972387
68	0xbde5447e	-0.111947045
69	0x3d578a4d	0.05262213
70	0xbd9e84db	-0.07740184
71	0x3e498461	0.19679405
72	0x3dbe589b	0.09294244
73	0x3d54138a	0.051776446
74	0xbdabba01	-0.08385087
75	0x3e225c30	0.15855479
76	0x3e662cb3	0.22477989
77	0x3e39ceea	0.18145338
78	0xbcb8e8ed	-0.022572005
79	0x3d4f9142	0.050675638
80	0xbe42c0a3	-0.19018798
81	0x3deb6f63	0.11495855
82	0x3e612a72	0.21988848
83	0x3e70ab28	0.23502791
84	0xbd86878b	-0.065688215
85	0xbdc2f22c	-0.09518847
86	0xbe4df18e	-0.20111677
87	0x3e334e2b	0.17510287
88	0x3e0ebc33	0.1393898
89	0x3e0fd3ea	0.14045683
90	0x3e28d2b5	0.16486628
91	0xbd9d8dd0	-0.07693064
92	0xbea1f10d	-0.3162922
93	0x3dc81f6e	0.0977162
94	0x3dc371ef	0.095432155
95	0xbde49c6c	-0.111626476
96	0xbde79cd5	-0.1130921
97	0xbeb61dde	-0.35569662
98	0xbe3f23b7	-0.18665968
99	0x3d56c087	0.052429702
100	0x3e27bc0c	0.16380328
101	0xbdc0ab05	-0.094076194
102	0x3e3cc190	0.18433213
103	0xbdd0d483	-0.101967834
104	0xbe002268	-0.12513125
105	0x3c48a049	0.012245246
106	0xbe1bf7a6	-0.15231189
107	0xbe530b09	-0.20609678
108	0xbd8a6a94	-0.067586094
109	0x3e146a56	0.14493689
110	0x3e380a7f	0.17972754
111	0xbddd914e	-0.1081873
112	0xbe1eaae7	-0.15494882
113	0xbd4db8c0	-0.05022502
114	0xbe0577f4	-0.1303404
115	0x3e00fcc0	0.12596416
116	0xbdd22dc8	-0.10262638
117	0x3e1da843	0.15396218
118	0x3dc633b0	0.09677827
119	0xbcb5f9d4	-0.022213854
120	0x3e618bb8	0.22025955
121	0xbe3e9f69	-0.18615498
122	0x3e16f8eb	0.14743392
123	0xbdcc8e3c	-0.099880666
124	0xbe3f9ebb	-0.18712895
125	0xbd974269	-0.073857136
126	0x3e5b435f	0.21412419
127	0x3de5f04a	0.11227472
128	0x3d067a40	0.03283143
129	0x3c9eeb4c	0.019399308
130	0xbda46b7e	-0.08028315
131	0xbdfdee57	-0.12398975
132	0xbd8cb583	-0.06870558
133	0x3d269e99	0.040678594
134	0xbda49305	-0.08035854
135	0xbe1247af	-0.14285158
136	0xbdca7366	-0.09885292
137	0x3ba75f1a	0.0051077725
138	0x3def63e2	0.11688973
139	0x3e0dc1a7	0.13843404
140	0xbdee6911	-0.116411336
141	0xbdb462a8	-0.0880788
142	0xbe21d5c9	-0.15804209
143	0x3d85b1c6	0.06528048
144	0x3dddebf6	0.108360216
145	0xbc267d07	-0.010161645
146	0xbdf5e93d	-0.12007377
147	0xbc6a2cd9	-0.014292919
148	0xbdc05e5b	-0.09392997
149	0xbe36bc15	-0.17845185
150	0x3e1e9e54	0.15490085
151	0x3d86087f	0.06544589
152	0x3de5d754	0.11222711
153	0xbe522e9e	-0.20525596
154	0x3d5e1427	0.054218438
155	0x3e30970d	0.17245121
156	0xbe136010	-0.14392114
157	0x3d064c0a	0.03278736
158	0x3e5c73d2	0.21528557
159	0x3dbc09fc	0.09181592
160	0x3e13423d	0.14380737
161	0x3e360e31	0.17778851
162	0x3e786692	0.24257877
163	0xbe44d738	-0.19222724
164	0x3d13c83a	0.036079623
165	0xbe114bb6	-0.14189038
166	0xbd3cf759	-0.046134327
167	0xbe044b14	-0.12919265
168	0xbb3d8498	-0.0028918143
169	0xbcb8ac97	-0.022543235
170	0x3d98ca5e	0.074604735
171	0x3c283e07	0.010268695
172	0xbce4d064	-0.0279314
173	0x3df89e89	0.12139613
174	0xbd1e36e7	-0.038626578
175	0xbe37ec6a	-0.17961279
176	0x3d5e2df8	0.054243058
177	0x3dc4c968	0.09608728
178	0xbe1aa6c0	-0.15102673
179	0xbbcb7b47	-0.006209764
180	0x3cc196fe	0.023631569
181	0xbe3d9852	-0.18515137
182	0x3d5eb03a	0.05436728
183	0xbd8dbd4b	-0.069208704
184	0xbe65abcb	-0.22428815
185	0xbd2138c8	-0.03936079
186	0xbe3382f3	-0.17530422
187	0xbd41a04b	-0.047272008
188	0xbd621d26	-0.05520358
189	0x3e3c86af	0.18410753
190	0x3d0e6dfc	0.034772858
191	0xbe0ffedf	-0.1406207
192	0xbd1562de	-0.03647124
193	0x3cd29bbd	0.025709027
194	0x3c506904	0.01272035
195	0x3e05d0ed	0.1306798
196	0xbdc37b3d	-0.0954499
197	0x3d7058c8	0.05867842
198	0x3dd7e7d5	0.10542265
199	0xbe01123a	-0.12604609
200	0xbd9efb89	-0.0776282
201	0x3d6d8081	0.05798388
202	0x3cc3fd47	0.023924483
203	0xbe16aa69	-0.14713444
204	0xbe110c31	-0.14164807
205	0xbcf9a10d	-0.030472303
206	0x3e1af85c	0.15133804
207	0xbe0e7781	-0.13912775
208	0xbb1f5a00	-0.0024315119
209	0x3d607512	0.054799147
210	0xbde03b23	-0.109487794
211	0xbc84ee6d	-0.016226972
212	0xbc2a4d67	-0.010394431
213	0xbe15de3b	-0.14635555
214	0xbd23a40d	-0.039951373
215	0x3d97b7d6	0.07408111
216	0xbdb3abfb	-0.08773037
217	0xbe39f743	-0.18160729
218	0xbe212144	-0.15735346
219	0xbd5d90ca	-0.05409316
220	0x3b8d23a7	0.0043072286
221	0xbda24a61	-0.07924343
222	0xbe1bc090	-0.15210176
223	0xbcedfd38	-0.029051408
224	0x3d8f0c28	0.069847405
225	0x3e2cc869	0.16873325
226	0x3e139e39	0.14415826
227	0x3e0d33c5	0.1378928
228	0xbde77192	-0.11300959
229	0x3d457383	0.048205864
230	0xbdd80998	-0.10548705
231	0x3cc8fc84	0.024534471
232	0x3bc0fcd6	0.0058895154
233	0xbdbac5bc	-0.09119746
234	0xbb4c0ec5	-0.0031136733
235	0x3dfec395	0.12439648
236	0x3def7430	0.11692083
237	0x3e49ae63	0.1969543
238	0xbdb4ea6b	-0.08833774
239	0xbe122a30	-0.14273906
240	0x3c22b24a	0.009930203
241	0xbdbb0790	-0.09132302
242	0xbdac48ef	-0.084123485
243	0x3de8f461	0.113747366
244	0x3e3ac488	0.18239033
245	0xbd97d464	-0.07413557
246	0x3d43c9c8	0.047799855
247	0x3c68a93c	0.014200505
248	0x3ce957b9	0.028484212
249	0x3c1809f2	0.009279715
250	0xbd2d3ce9	-0.042294417
251	0xbd986b31	-0.0744232
252	0x3dbf341b	0.0933611
253	0x3bf90aaf	0.0076001505
254	0xbde55d3e	-0.11199425
255	0x3df58c06	0.11989598

bias f4 [10]
0	0xbd754eda	-0.05988965
1	0x3d9da75f	0.07697939
2	0x3de3cd55	0.11123148
3	0x3dcd735c	0.10031769
4	0x3e14b1b9	0.14520921
5	0xbdd4cad2	-0.103902474
6	0xbc3bc48a	-0.011460433
7	0xbdc72432	-0.097237006
8	0xbd57b328	-0.05266109
9	0xbd8ce59c	-0.06879732
